#loc0 = loc(unknown)
"builtin.module"() ( {
  "tf_saved_model.global_tensor"() {is_mutable, sym_name = "dense_4/bias", type = tensor<128xf32>, value = dense<"…"> : tensor<128xf32>} : () -> () loc(#loc1)
  "tf_saved_model.global_tensor"() {is_mutable, sym_name = "dense_4/kernel", type = tensor<784x128xf32>, value = dense<"…"> : tensor<784x128xf32>} : () -> () loc(#loc2)
  "tf_saved_model.global_tensor"() {is_mutable, sym_name = "dense_5/bias", type = tensor<10xf32>, value = dense<[-0.0966188311, -0.0743258893, 0.0677980855, -0.0380006693, -0.0201572739, 0.0747147575, -0.0537021309, 0.0652097613, 0.0330057554, -0.0101198219]> : tensor<10xf32>} : () -> () loc(#loc3)
  "tf_saved_model.global_tensor"() {is_mutable, sym_name = "dense_5/kernel", type = tensor<128x10xf32>, value = dense<"…"> : tensor<128x10xf32>} : () -> () loc(#loc4)
  "tf_saved_model.session_initializer"() {initializers = [@NoOp]} : () -> () loc(#loc0)
  "builtin.func"() ( {
    "tf.NoOp"() {device = ""} : () -> () loc(#loc5)
    "std.return"() : () -> () loc(#loc0)
  }) {sym_name = "NoOp", tf_saved_model.exported_names = ["__tf_saved_model_session_initializer_NoOp"], type = () -> ()} : () -> () loc(#loc0)
  "builtin.func"() ( {
  ^bb0(%arg0: tensor<?x28x28xf32> loc(unknown), %arg1: tensor<!tf_type.resource<tensor<128xf32>>> loc(unknown), %arg2: tensor<!tf_type.resource<tensor<784x128xf32>>> loc(unknown), %arg3: tensor<!tf_type.resource<tensor<10xf32>>> loc(unknown), %arg4: tensor<!tf_type.resource<tensor<128x10xf32>>> loc(unknown)):  // no predecessors
    %0 = "tf.StatefulPartitionedCall"(%arg0, %arg2, %arg1, %arg4, %arg3) {_collective_manager_ids = [], _read_only_resource_inputs = [1, 2, 3, 4], config = "", config_proto = "\0A\07\0A\03CPU\10\01\0A\07\0A\03GPU\10\002\02J\008\01\82\01\00", device = "", executor_type = "", f = @__inference_signature_wrapper_213510} : (tensor<?x28x28xf32>, tensor<!tf_type.resource<tensor<784x128xf32>>>, tensor<!tf_type.resource<tensor<128xf32>>>, tensor<!tf_type.resource<tensor<128x10xf32>>>, tensor<!tf_type.resource<tensor<10xf32>>>) -> tensor<*xf32> loc(#loc6)
    "std.return"(%0) : (tensor<*xf32>) -> () loc(#loc0)
  }) {arg_attrs = [{tf_saved_model.index_path = ["inputs"]}, {tf_saved_model.bound_input = @"dense_4/bias"}, {tf_saved_model.bound_input = @"dense_4/kernel"}, {tf_saved_model.bound_input = @"dense_5/bias"}, {tf_saved_model.bound_input = @"dense_5/kernel"}], res_attrs = [{tf_saved_model.index_path = ["output_0"]}], sym_name = "serving_default", tf.entry_function = {control_outputs = "", inputs = "serving_default_inputs:0", outputs = "StatefulPartitionedCall:0"}, tf_saved_model.exported_names = ["serving_default"], type = (tensor<?x28x28xf32>, tensor<!tf_type.resource<tensor<128xf32>>>, tensor<!tf_type.resource<tensor<784x128xf32>>>, tensor<!tf_type.resource<tensor<10xf32>>>, tensor<!tf_type.resource<tensor<128x10xf32>>>) -> tensor<*xf32>} : () -> () loc(#loc0)
  "builtin.func"() ( {
  ^bb0(%arg0: tensor<?x784xf32> loc(unknown), %arg1: tensor<!tf_type.resource> loc(unknown), %arg2: tensor<!tf_type.resource> loc(unknown)):  // no predecessors
    %0 = "tf.ReadVariableOp"(%arg2) {device = ""} : (tensor<!tf_type.resource>) -> tensor<*xf32> loc(#loc7)
    %1 = "tf.ReadVariableOp"(%arg1) {device = ""} : (tensor<!tf_type.resource>) -> tensor<*xf32> loc(#loc8)
    %2 = "tf.MatMul"(%arg0, %1) {device = "", transpose_a = false, transpose_b = false} : (tensor<?x784xf32>, tensor<*xf32>) -> tensor<*xf32> loc(#loc9)
    %3 = "tf.BiasAdd"(%2, %0) {data_format = "NHWC", device = ""} : (tensor<*xf32>, tensor<*xf32>) -> tensor<*xf32> loc(#loc10)
    %4 = "tf.Relu"(%3) {device = ""} : (tensor<*xf32>) -> tensor<*xf32> loc(#loc11)
    "tf.NoOp"() {_acd_function_control_output = true, device = ""} : () -> () loc(#loc12)
    %5 = "tf.Identity"(%4) {device = ""} : (tensor<*xf32>) -> tensor<*xf32> loc(#loc13)
    "std.return"(%5) : (tensor<*xf32>) -> () loc(#loc0)
  }) {arg_attrs = [{tf._user_specified_name = "inputs"}, {}, {}], sym_name = "__inference_dense_4_layer_call_and_return_conditional_losses_208220", sym_visibility = "private", tf._construction_context = "kEagerRuntime", tf._input_shapes = [#tf_type.shape<?x784>, #tf_type.shape<>, #tf_type.shape<>], tf.signature.is_stateful, type = (tensor<?x784xf32>, tensor<!tf_type.resource>, tensor<!tf_type.resource>) -> tensor<*xf32>} : () -> () loc(#loc0)
  "builtin.func"() ( {
  ^bb0(%arg0: tensor<?x128xf32> loc(unknown), %arg1: tensor<!tf_type.resource> loc(unknown), %arg2: tensor<!tf_type.resource> loc(unknown)):  // no predecessors
    %0 = "tf.ReadVariableOp"(%arg2) {device = ""} : (tensor<!tf_type.resource>) -> tensor<*xf32> loc(#loc14)
    %1 = "tf.ReadVariableOp"(%arg1) {device = ""} : (tensor<!tf_type.resource>) -> tensor<*xf32> loc(#loc15)
    %2 = "tf.MatMul"(%arg0, %1) {device = "", transpose_a = false, transpose_b = false} : (tensor<?x128xf32>, tensor<*xf32>) -> tensor<*xf32> loc(#loc16)
    %3 = "tf.BiasAdd"(%2, %0) {data_format = "NHWC", device = ""} : (tensor<*xf32>, tensor<*xf32>) -> tensor<*xf32> loc(#loc17)
    "tf.NoOp"() {_acd_function_control_output = true, device = ""} : () -> () loc(#loc18)
    %4 = "tf.Identity"(%3) {device = ""} : (tensor<*xf32>) -> tensor<*xf32> loc(#loc19)
    "std.return"(%4) : (tensor<*xf32>) -> () loc(#loc0)
  }) {arg_attrs = [{tf._user_specified_name = "inputs"}, {}, {}], sym_name = "__inference_dense_5_layer_call_and_return_conditional_losses_210460", sym_visibility = "private", tf._construction_context = "kEagerRuntime", tf._input_shapes = [#tf_type.shape<?x128>, #tf_type.shape<>, #tf_type.shape<>], tf.signature.is_stateful, type = (tensor<?x128xf32>, tensor<!tf_type.resource>, tensor<!tf_type.resource>) -> tensor<*xf32>} : () -> () loc(#loc0)
  "builtin.func"() ( {
  ^bb0(%arg0: tensor<?x28x28xf32> loc(unknown)):  // no predecessors
    %0 = "tf.Const"() {device = "", value = dense<[-1, 784]> : tensor<2xi32>} : () -> tensor<2xi32> loc(#loc20)
    %1 = "tf.Reshape"(%arg0, %0) {device = ""} : (tensor<?x28x28xf32>, tensor<2xi32>) -> tensor<*xf32> loc(#loc21)
    %2 = "tf.Identity"(%1) {device = ""} : (tensor<*xf32>) -> tensor<*xf32> loc(#loc22)
    "std.return"(%2) : (tensor<*xf32>) -> () loc(#loc0)
  }) {arg_attrs = [{tf._user_specified_name = "inputs"}], sym_name = "__inference_flatten_2_layer_call_and_return_conditional_losses_210310", sym_visibility = "private", tf._construction_context = "kEagerRuntime", tf._input_shapes = [#tf_type.shape<?x28x28>], type = (tensor<?x28x28xf32>) -> tensor<*xf32>} : () -> () loc(#loc0)
  "builtin.func"() ( {
  ^bb0(%arg0: tensor<?x28x28xf32> loc(unknown), %arg1: tensor<!tf_type.resource> loc(unknown), %arg2: tensor<!tf_type.resource> loc(unknown), %arg3: tensor<!tf_type.resource> loc(unknown), %arg4: tensor<!tf_type.resource> loc(unknown)):  // no predecessors
    %0 = "tf.StatefulPartitionedCall"(%arg0, %arg1, %arg2, %arg3, %arg4) {_read_only_resource_inputs = [1, 2, 3, 4], config = "", config_proto = "\0A\07\0A\03CPU\10\01\0A\07\0A\03GPU\10\002\02J\008\01\82\01\00", device = "", executor_type = "", f = @__inference_sequential_2_layer_call_fn_211130} : (tensor<?x28x28xf32>, tensor<!tf_type.resource>, tensor<!tf_type.resource>, tensor<!tf_type.resource>, tensor<!tf_type.resource>) -> tensor<*xf32> loc(#loc23)
    "tf.NoOp"() {_acd_function_control_output = true, device = ""} : () -> () loc(#loc24)
    %1 = "tf.Identity"(%0) {device = ""} : (tensor<*xf32>) -> tensor<*xf32> loc(#loc25)
    "std.return"(%1) : (tensor<*xf32>) -> () loc(#loc0)
  }) {arg_attrs = [{tf._user_specified_name = "inputs"}, {}, {}, {}, {}], sym_name = "__inference_restored_function_body_213360", sym_visibility = "private", tf._construction_context = "kEagerRuntime", tf._input_shapes = [#tf_type.shape<?x28x28>, #tf_type.shape<>, #tf_type.shape<>, #tf_type.shape<>, #tf_type.shape<>], tf.signature.is_stateful, type = (tensor<?x28x28xf32>, tensor<!tf_type.resource>, tensor<!tf_type.resource>, tensor<!tf_type.resource>, tensor<!tf_type.resource>) -> tensor<*xf32>} : () -> () loc(#loc0)
  "builtin.func"() ( {
  ^bb0(%arg0: tensor<?x28x28xf32> loc(unknown), %arg1: tensor<!tf_type.resource> loc(unknown), %arg2: tensor<!tf_type.resource> loc(unknown), %arg3: tensor<!tf_type.resource> loc(unknown), %arg4: tensor<!tf_type.resource> loc(unknown)):  // no predecessors
    %0 = "tf.PartitionedCall"(%arg0) {_collective_manager_ids = [], _read_only_resource_inputs = [], config = "", config_proto = "\0A\07\0A\03CPU\10\01\0A\07\0A\03GPU\10\002\02J\008\01\82\01\00", device = "", executor_type = "", f = @__inference_flatten_2_layer_call_and_return_conditional_losses_210310} : (tensor<?x28x28xf32>) -> tensor<*xf32> loc(#loc26)
    %1 = "tf.StatefulPartitionedCall"(%0, %arg1, %arg2) {_collective_manager_ids = [], _read_only_resource_inputs = [1, 2], config = "", config_proto = "\0A\07\0A\03CPU\10\01\0A\07\0A\03GPU\10\002\02J\008\01\82\01\00", device = "", executor_type = "", f = @__inference_dense_4_layer_call_and_return_conditional_losses_208220} : (tensor<*xf32>, tensor<!tf_type.resource>, tensor<!tf_type.resource>) -> tensor<*xf32> loc(#loc27)
    %2 = "tf.StatefulPartitionedCall"(%1, %arg3, %arg4) {_collective_manager_ids = [], _read_only_resource_inputs = [1, 2], config = "", config_proto = "\0A\07\0A\03CPU\10\01\0A\07\0A\03GPU\10\002\02J\008\01\82\01\00", device = "", executor_type = "", f = @__inference_dense_5_layer_call_and_return_conditional_losses_210460} : (tensor<*xf32>, tensor<!tf_type.resource>, tensor<!tf_type.resource>) -> tensor<*xf32> loc(#loc28)
    "tf.NoOp"() {_acd_function_control_output = true, device = ""} : () -> () loc(#loc29)
    %3 = "tf.Identity"(%2) {device = ""} : (tensor<*xf32>) -> tensor<*xf32> loc(#loc30)
    "std.return"(%3) : (tensor<*xf32>) -> () loc(#loc0)
  }) {arg_attrs = [{tf._user_specified_name = "inputs"}, {}, {}, {}, {}], sym_name = "__inference_sequential_2_layer_call_and_return_conditional_losses_211040", sym_visibility = "private", tf._construction_context = "kEagerRuntime", tf._input_shapes = [#tf_type.shape<?x28x28>, #tf_type.shape<>, #tf_type.shape<>, #tf_type.shape<>, #tf_type.shape<>], tf.signature.is_stateful, type = (tensor<?x28x28xf32>, tensor<!tf_type.resource>, tensor<!tf_type.resource>, tensor<!tf_type.resource>, tensor<!tf_type.resource>) -> tensor<*xf32>} : () -> () loc(#loc0)
  "builtin.func"() ( {
  ^bb0(%arg0: tensor<?x28x28xf32> loc(unknown), %arg1: tensor<!tf_type.resource> loc(unknown), %arg2: tensor<!tf_type.resource> loc(unknown), %arg3: tensor<!tf_type.resource> loc(unknown), %arg4: tensor<!tf_type.resource> loc(unknown)):  // no predecessors
    %0 = "tf.StatefulPartitionedCall"(%arg0, %arg1, %arg2, %arg3, %arg4) {_collective_manager_ids = [], _read_only_resource_inputs = [1, 2, 3, 4], config = "", config_proto = "\0A\07\0A\03CPU\10\01\0A\07\0A\03GPU\10\002\02J\008\01\82\01\00", device = "", executor_type = "", f = @__inference_sequential_2_layer_call_and_return_conditional_losses_211040} : (tensor<?x28x28xf32>, tensor<!tf_type.resource>, tensor<!tf_type.resource>, tensor<!tf_type.resource>, tensor<!tf_type.resource>) -> tensor<*xf32> loc(#loc31)
    "tf.NoOp"() {_acd_function_control_output = true, device = ""} : () -> () loc(#loc32)
    %1 = "tf.Identity"(%0) {device = ""} : (tensor<*xf32>) -> tensor<*xf32> loc(#loc33)
    "std.return"(%1) : (tensor<*xf32>) -> () loc(#loc0)
  }) {arg_attrs = [{tf._user_specified_name = "flatten_2_input"}, {}, {}, {}, {}], sym_name = "__inference_sequential_2_layer_call_fn_211130", sym_visibility = "private", tf._construction_context = "kEagerRuntime", tf._input_shapes = [#tf_type.shape<?x28x28>, #tf_type.shape<>, #tf_type.shape<>, #tf_type.shape<>, #tf_type.shape<>], tf.signature.is_stateful, type = (tensor<?x28x28xf32>, tensor<!tf_type.resource>, tensor<!tf_type.resource>, tensor<!tf_type.resource>, tensor<!tf_type.resource>) -> tensor<*xf32>} : () -> () loc(#loc0)
  "builtin.func"() ( {
  ^bb0(%arg0: tensor<?x28x28xf32> loc(unknown), %arg1: tensor<!tf_type.resource> loc(unknown), %arg2: tensor<!tf_type.resource> loc(unknown), %arg3: tensor<!tf_type.resource> loc(unknown), %arg4: tensor<!tf_type.resource> loc(unknown)):  // no predecessors
    %0 = "tf.StatefulPartitionedCall"(%arg0, %arg1, %arg2, %arg3, %arg4) {_collective_manager_ids = [], _read_only_resource_inputs = [1, 2, 3, 4], config = "", config_proto = "\0A\07\0A\03CPU\10\01\0A\07\0A\03GPU\10\002\02J\008\01\82\01\00", device = "", executor_type = "", f = @__inference_restored_function_body_213360} : (tensor<?x28x28xf32>, tensor<!tf_type.resource>, tensor<!tf_type.resource>, tensor<!tf_type.resource>, tensor<!tf_type.resource>) -> tensor<*xf32> loc(#loc34)
    "tf.NoOp"() {_acd_function_control_output = true, device = ""} : () -> () loc(#loc35)
    %1 = "tf.Identity"(%0) {device = ""} : (tensor<*xf32>) -> tensor<*xf32> loc(#loc36)
    "std.return"(%1) : (tensor<*xf32>) -> () loc(#loc0)
  }) {arg_attrs = [{tf._user_specified_name = "inputs"}, {}, {}, {}, {}], sym_name = "__inference_signature_wrapper_213510", sym_visibility = "private", tf._construction_context = "kEagerRuntime", tf._input_shapes = [#tf_type.shape<?x28x28>, #tf_type.shape<>, #tf_type.shape<>, #tf_type.shape<>, #tf_type.shape<>], tf.signature.is_stateful, type = (tensor<?x28x28xf32>, tensor<!tf_type.resource>, tensor<!tf_type.resource>, tensor<!tf_type.resource>, tensor<!tf_type.resource>) -> tensor<*xf32>} : () -> () loc(#loc0)
}) {tf.versions = {bad_consumers = [], min_consumer = 12 : i32, producer = 898 : i32}, tf_saved_model.semantics} : () -> () loc(#loc0)
#loc1 = loc("dense_4/bias")
#loc2 = loc("dense_4/kernel")
#loc3 = loc("dense_5/bias")
#loc4 = loc("dense_5/kernel")
#loc5 = loc(fused["NoOp:", "NoOp"])
#loc6 = loc(fused["StatefulPartitionedCall:", "StatefulPartitionedCall"])
#loc7 = loc(fused["ReadVariableOp:", "BiasAdd/ReadVariableOp@__inference_dense_4_layer_call_and_return_conditional_losses_20822"])
#loc8 = loc(fused["ReadVariableOp:", "MatMul/ReadVariableOp@__inference_dense_4_layer_call_and_return_conditional_losses_20822"])
#loc9 = loc(fused["MatMul:", "MatMul@__inference_dense_4_layer_call_and_return_conditional_losses_20822"])
#loc10 = loc(fused["BiasAdd:", "BiasAdd@__inference_dense_4_layer_call_and_return_conditional_losses_20822"])
#loc11 = loc(fused["Relu:", "Relu@__inference_dense_4_layer_call_and_return_conditional_losses_20822"])
#loc12 = loc(fused["NoOp:", "NoOp@__inference_dense_4_layer_call_and_return_conditional_losses_20822"])
#loc13 = loc(fused["Identity:", "Identity@__inference_dense_4_layer_call_and_return_conditional_losses_20822"])
#loc14 = loc(fused["ReadVariableOp:", "BiasAdd/ReadVariableOp@__inference_dense_5_layer_call_and_return_conditional_losses_21046"])
#loc15 = loc(fused["ReadVariableOp:", "MatMul/ReadVariableOp@__inference_dense_5_layer_call_and_return_conditional_losses_21046"])
#loc16 = loc(fused["MatMul:", "MatMul@__inference_dense_5_layer_call_and_return_conditional_losses_21046"])
#loc17 = loc(fused["BiasAdd:", "BiasAdd@__inference_dense_5_layer_call_and_return_conditional_losses_21046"])
#loc18 = loc(fused["NoOp:", "NoOp@__inference_dense_5_layer_call_and_return_conditional_losses_21046"])
#loc19 = loc(fused["Identity:", "Identity@__inference_dense_5_layer_call_and_return_conditional_losses_21046"])
#loc20 = loc(fused["Const:", "Const@__inference_flatten_2_layer_call_and_return_conditional_losses_21031"])
#loc21 = loc(fused["Reshape:", "Reshape@__inference_flatten_2_layer_call_and_return_conditional_losses_21031"])
#loc22 = loc(fused["Identity:", "Identity@__inference_flatten_2_layer_call_and_return_conditional_losses_21031"])
#loc23 = loc(fused["StatefulPartitionedCall:", "StatefulPartitionedCall@__inference_restored_function_body_21336"])
#loc24 = loc(fused["NoOp:", "NoOp@__inference_restored_function_body_21336"])
#loc25 = loc(fused["Identity:", "Identity@__inference_restored_function_body_21336"])
#loc26 = loc(fused["PartitionedCall:", "flatten_2/PartitionedCall@__inference_sequential_2_layer_call_and_return_conditional_losses_21104"])
#loc27 = loc(fused["StatefulPartitionedCall:", "dense_4/StatefulPartitionedCall@__inference_sequential_2_layer_call_and_return_conditional_losses_21104"])
#loc28 = loc(fused["StatefulPartitionedCall:", "dense_5/StatefulPartitionedCall@__inference_sequential_2_layer_call_and_return_conditional_losses_21104"])
#loc29 = loc(fused["NoOp:", "NoOp@__inference_sequential_2_layer_call_and_return_conditional_losses_21104"])
#loc30 = loc(fused["Identity:", "Identity@__inference_sequential_2_layer_call_and_return_conditional_losses_21104"])
#loc31 = loc(fused["StatefulPartitionedCall:", "StatefulPartitionedCall@__inference_sequential_2_layer_call_fn_21113"])
#loc32 = loc(fused["NoOp:", "NoOp@__inference_sequential_2_layer_call_fn_21113"])
#loc33 = loc(fused["Identity:", "Identity@__inference_sequential_2_layer_call_fn_21113"])
#loc34 = loc(fused["StatefulPartitionedCall:", "StatefulPartitionedCall@__inference_signature_wrapper_21351"])
#loc35 = loc(fused["NoOp:", "NoOp@__inference_signature_wrapper_21351"])
#loc36 = loc(fused["Identity:", "Identity@__inference_signature_wrapper_21351"])

